dqn_snake.pth (torch, 42989 bytes, 6 tensors)

0.weight f4 [128, 11]
000000 88 da 3b bf 30 fc 09 bf a4 ed 2c 3e 5c 6c 38 bf
       -0.7338033 -0.5390043 0.16887528 -0.72040343
000010 77 0d 6c be 4c e3 61 bf f3 d3 eb bd 5a 36 5d bf
       -0.23052011 -0.8823745 -0.115150355 -0.8641106
000020 3e f5 05 bf c9 66 a5 bf 31 ef e4 be 13 1a 46 3e
       -0.52327335 -1.2921993 -0.4471374 0.19345884
000030 2e 1e 48 bc 3d c5 28 3f 02 5a 7c be 8e 88 88 3e
       -0.012214227 0.6592596 -0.2464371 0.26666683
000040 88 5e b8 3e df 8f 3b 3e cb 64 0b be 0d 16 18 bd
       0.36009622 0.18316601 -0.13612668 -0.037130404
000050 eb bd 75 3e 3f 9d bb bd af 05 6b be 07 29 9a 3e
       0.23998229 -0.09160852 -0.22951387 0.30109426
000060 41 a3 4b 3f 6a 76 57 3f 18 3d 76 3f 37 fb 44 3f
       0.7954598 0.8416506 0.9618697 0.76945823
000070 f2 36 51 3f 05 b1 c0 3e cf 78 30 3f 80 30 82 bf
       0.81724465 0.37635055 0.6893434 -1.0171051
000080 c4 28 22 bf cf 80 30 bf e7 2c 1a bf 79 c6 da 3f
       -0.63343453 -0.68946546 -0.60224766 1.7091819
000090 1a 8d 0b bf dd 53 62 bf b6 7d 37 bf d8 5e 8a bf
       -0.5451218 -0.88409215 -0.71676195 -1.0810194
0000a0 b2 21 37 bf 8a 6b f3 bf 46 d7 9d bf 27 1d 0b bf
       -0.7153579 -1.9017193 -1.2331321 -0.5434136
0000b0 4a ef 8a be 73 bc 01 3d fe 7e fc 3e d9 be 98 3f
       -0.27135688 0.03167386 0.49315637 1.1933242
0000c0 39 eb 86 3f 6f 9e fb 3f 1f 46 ec 37 61 7c b1 bf
       1.0540534 1.9657725 2.8166045e-05 -1.3866082
0000d0 57 98 03 c0 62 f2 8d bf fc 94 2f 3f fd 83 54 bf
       -2.056173 -1.1089594 0.6858671 -0.830139
0000e0 12 37 52 be 78 96 43 3f e4 3a 86 3f 75 63 83 3f
       -0.2052882 0.7640147 1.0486722 1.0264727
0000f0 1d 64 41 3f 7d 2f a1 3f 06 a5 88 bf 6b c0 ef 3d
       0.75543386 1.2592617 -1.0675361 0.11706623
000100 1d 31 a1 3f 55 63 3e 3f ad 6a dd 3e 90 7d ac bd
       1.2593113 0.7437032 0.4324545 -0.08422387
000110 6a 97 4b 3e 1d e4 b9 3f dc b1 00 40 8d ff 08 40
       0.19881979 1.452274 2.0108557 2.1405976
000120 72 99 b8 3f f0 09 68 3f df 08 1b 3f 40 e6 90 3e
       1.4421828 0.90640163 0.6056041 0.28300667
000130 20 24 7a 3f 6a d0 b5 be e3 c1 b0 3e d4 e3 2c 3f
       0.9771137 -0.3551057 0.34522924 0.6753514
000140 51 93 f7 3f fe 36 b3 3f bb 22 ad be 1f cc ee 3f
       1.9341832 1.4001157 -0.3381556 1.8656043
000150 d5 90 0f 3f 54 6e fa 3e 60 6d 90 3e f8 0c 9a 3c
       0.5608037 0.489123 0.28208447 0.018805012
000160 b6 c6 1e 3f 04 48 50 3f 57 f5 ea be 08 ac 3c bf
       0.6202196 0.8135989 -0.45890304 -0.737
000170 04 dc 92 bf eb 72 b6 3e 0f e5 72 bf 58 19 49 3e
       -1.1473393 0.3563455 -0.94880766 0.19638574
000180 eb b1 8a bd a2 fc 7d be 7f 17 a0 bf d5 87 86 3e
       -0.067722164 -0.24803403 -1.250717 0.26275507
000190 eb bd 85 be 11 2e 74 3f 8b ba c9 3f cb 8b bc 3f
       -0.26121458 0.9538279 1.5760053 1.4730161
0001a0 b4 39 c3 3f 30 9d 24 3e 8d 01 4f 3f 7c 8b 04 3f
       1.5251985 0.16075587 0.8086174 0.51775336
0001b0 61 8f 9e bd 71 9d 1a bc 0e 0d 1a bf d2 fa 93 3e
       -0.07742191 -0.009436951 -0.6017617 0.28902298
0001c0 51 25 97 3e a4 f9 c4 3f eb f2 db 3f 16 fc 0f be
       0.29520658 1.5388684 1.7183508 -0.14061007
0001d0 36 9f f7 3f 6b 42 fd 3e a6 49 79 3e 56 2e a7 bf
       1.9345462 0.49464735 0.24344501 -1.3061016
0001e0 58 09 9e bf db 4d 75 3f 69 98 4e 3f 62 de 97 3d
       -1.2346601 0.95821923 0.8070131 0.07415463
0001f0 b9 cd 9a be d2 f5 1f bf ed 2f 19 3e db 27 d9 3e
       -0.3023508 -0.6248447 0.14959688 0.4241322
000200 bc 87 fb bc 35 b3 5a bf bf a1 b6 bc 27 65 13 3f
       -0.030704372 -0.854297 -0.022293923 0.5757622
000210 6e ca 43 3f 81 1d 14 3f e8 89 e6 3e a3 3f f7 3e
       0.7648076 0.5785752 0.4502709 0.48290738
000220 e5 a9 af 3f c5 5e 78 3f c9 09 63 be b5 0d 90 3f
       1.3723723 0.97019607 -0.22171701 1.1254183
000230 31 66 16 3f be 96 12 3f b5 f4 f5 be a0 02 69 3f
       0.5874968 0.57261264 -0.4803826 0.9101963
000240 89 7e 9c bf da 38 4c 3e 82 54 a2 3f e3 90 8f 3f
       -1.2226115 0.19943562 1.268204 1.1216091
000250 b3 80 d7 3f 96 04 d3 3f bd ef 93 3f 32 06 aa 3f
       1.6836151 1.6485775 1.1557537 1.3283141
000260 62 e0 2a 3f 13 c0 11 3f 2e 70 d1 be 51 3b c3 be
       0.6674863 0.56933707 -0.409059 -0.38131192
000270 de 82 c5 3e b4 64 9f bd a8 6a 07 be c7 92 d1 bd
       0.38576406 -0.077828795 -0.1322428 -0.10233074
000280 71 00 6f bd 01 86 e4 be 72 14 e5 be bf c0 d9 be
       -0.05835003 -0.44633487 -0.4474216 -0.42529866
000290 e8 f5 98 be 23 a9 d1 bc 44 10 8b 3e 13 8e c3 3e
       -0.29875112 -0.025593346 0.27160847 0.38194332
0002a0 b3 aa d8 be 02 92 c6 be 9c 70 f4 be 48 89 9a bd
       -0.42317733 -0.3878327 -0.47742164 -0.075457156
0002b0 b8 67 9a bd 7b 9d 09 bf 5e 8e 3b bf ad e9 eb be
       -0.07539314 -0.5375592 -0.7326411 -0.46076718
0002c0 58 71 1b be 47 fd 5d 3f db 04 f6 bd 5a 80 99 be
       -0.15179956 0.86714596 -0.12012645 -0.29980737
0002d0 f5 c9 bd 3f b8 f0 bc 3f b5 61 89 3f 50 a8 a8 bf
       1.4827257 1.4760962 1.0732943 -1.3176365
0002e0 07 4d 80 3e eb 30 20 3f ff 8e 94 3f 36 06 b1 be
       0.25058767 0.6257464 1.1606139 -0.3457505
0002f0 e9 88 b0 3e b5 b0 79 3e 26 71 1b be 2d 56 bb be
       0.34479454 0.24383815 -0.15179881 -0.36589184
000300 cf 9e d7 be b8 6f c9 bc 34 99 ba 3d b8 d6 d7 bd
       -0.4211335 -0.024589404 0.091112524 -0.10539001
000310 b9 ab 1c be 1f ff 93 be 7e bd 03 3e 79 d7 2f bc
       -0.15299882 -0.2890558 0.12865254 -0.010732525
000320 f8 f6 18 bd 29 85 2e be 13 67 4a bd 57 56 89 be
       -0.037344903 -0.17042984 -0.049414705 -0.26823685
000330 9e f6 96 be 8e a7 a2 bd 93 59 a5 bd ed 73 e3 bd
       -0.2948503 -0.07942115 -0.080737256 -0.111060955
000340 d7 7d 96 be ac ad 1b 3e 13 cd 89 be 51 90 21 3e
       -0.29392883 0.1520297 -0.26914272 0.15777709
000350 ec 86 a1 3e 59 65 3a be d4 9c 3a be 75 8d a9 3d
       0.3154825 -0.18202724 -0.18223888 0.08278934
000360 e6 95 35 bf 45 62 42 bf 9d af c8 be a0 f6 64 bc
       -0.7093185 -0.759312 -0.39196482 -0.013974816
000370 ec 06 ca be 5f 37 cc be c0 0d a9 bc 18 24 bf 3d
       -0.39458406 -0.39885995 -0.02063644 0.09333056
000380 c4 c8 40 be 4d 04 aa be da 49 96 be 9f ae 2e bf
       -0.18826586 -0.33206406 -0.2935322 -0.682352
000390 4d 6d 2f bf 1b ad bb be 8a 4b 9a be 93 9d cb 3f
       -0.68526155 -0.36655506 -0.30135757 1.5907463
0003a0 15 0f 59 be 98 b0 b2 3f 22 62 06 bd 42 fa e0 be
       -0.2119716 1.3960142 -0.03280843 -0.43940932
0003b0 2c 34 11 bf 93 11 d5 bd ba 70 23 3e dd 07 ab 3e
       -0.5672023 -0.10403743 0.1596097 0.33404437
0003c0 39 05 3f 3f c3 82 cb 3e f9 3a 88 3f f7 cd fd 3d
       0.74617344 0.397482 1.0642997 0.123928
0003d0 b1 75 b2 3e f4 68 02 bf 94 bc cc be 8f 95 43 3f
       0.34855416 -0.50941396 -0.39987624 0.76400083
0003e0 c1 59 44 3f f2 a9 0a bf ef b7 b7 3e ca 9a 56 3f
       0.76699454 -0.54165566 0.35882518 0.8382994
0003f0 8a b8 19 3f f1 ae cb 3d cb 7d 8c 3e 4f 6a 39 3e
       0.6004721 0.09945477 0.27439722 0.1810696

0.bias f4 [128]
000000 3e 6d bf 3e 50 ce be bf d2 a8 d3 bf 2a 05 37 3f
       0.37388033 -1.4906712 -1.6535895 0.71492255
000010 ae 6c 8b bf 33 f7 03 c0 09 b3 22 c0 52 07 29 c0
       -1.0892541 -2.0619628 -2.5421774 -2.6410718
000020 f0 6f e6 be a2 c7 06 c0 b5 fd 16 c0 bb 1b 9d bf
       -0.45007277 -2.1059346 -2.359235 -1.2274088
000030 57 ac e5 bf e9 59 1a c0 fe 09 65 bd b2 26 0b bf
       -1.7943219 -2.4117377 -0.055917732 -0.5435592
000040 1d db 09 c0 1b 02 2a bf 00 98 2c bd a5 cf 1f bf
       -2.1539986 -0.6640946 -0.042137146 -0.62426215
000050 82 29 3e 3e a9 5d 21 bf 93 05 b4 bf 68 82 cd be
       0.18570521 -0.6303354 -1.4064201 -0.40138555
000060 13 df a7 3e 3b b6 06 bf 26 54 ab be 37 4d b9 be
       0.3278738 -0.5262181 -0.33462638 -0.36191723
000070 a6 1f c9 bf 22 b7 5d bf 25 d7 2b bf 67 24 b6 be
       -1.5712783 -0.86607563 -0.6712516 -0.35574648
000080 13 0e e9 be 57 56 c9 bf cf 79 b9 bf 60 08 c1 be
       -0.4551855 -1.5729474 -1.4490298 -0.37701702
000090 08 24 f7 bd 31 24 00 c0 3a 9b f6 bf 7b 19 66 bf
       -0.12067419 -2.002209 -1.9266121 -0.8988263
0000a0 3c d7 06 bf b5 0c f6 bf d6 c5 97 bf f3 d6 73 bf
       -0.5267217 -1.9222628 -1.185725 -0.9524986
0000b0 a4 9e c6 bf 29 57 c1 3d 51 c7 c0 3d 60 f0 07 be
       -1.5517163 0.094404526 0.094130166 -0.1327529
0000c0 7f c0 80 bf 51 1f bc be 50 aa 51 bf eb 78 6f bf
       -1.0058745 -0.36742643 -0.819005 -0.9354388
0000d0 b4 e3 da bf 96 c5 d1 bf 90 12 e1 be e1 5e 25 bd
       -1.710074 -1.6388423 -0.43959475 -0.040373687
0000e0 c8 8e 91 bf 35 55 49 bf fd 24 cb bf e6 b0 49 bf
       -1.1371698 -0.7864564 -1.5870663 -0.7878555
0000f0 2f 6b c2 3d a0 73 82 be 22 98 2a bd 4d 75 3f c0
       0.094931 -0.2547884 -0.04164899 -2.9915345
000100 bb b2 92 bf 0f 0e 42 bf 5e 06 17 bf a4 df 8e bf
       -1.1460794 -0.758027 -0.5899409 -1.1162
000110 8b 73 bc be 1e df 34 bd 75 85 d8 be 38 71 1b 3f
       -0.36806902 -0.044158094 -0.4228932 0.60719633
000120 5b e0 da bf 07 81 b7 bf fc c5 3e 3d c1 e2 dc bf
       -1.7099718 -1.4336251 0.04657553 -1.72567
000130 06 32 9d bf c2 f1 0e 40 7a c7 cd be e2 9f c3 bc
       -1.2280891 2.2335057 -0.4019125 -0.023879949
000140 e9 0d cf bf d6 de c5 be e6 71 b4 bf ef b7 b5 be
       -1.617612 -0.38646573 -1.4097259 -0.35491893
000150 8b 97 01 c0 42 dd b5 bf 36 00 4a 40 de 71 a8 be
       -2.0248744 -1.4208148 3.1562629 -0.32899374
000160 8d 1b 3a 40 17 f3 9e bf ec 56 1a c0 a9 30 0e 40
       2.9079316 -1.2417935 -2.4115553 2.22172
000170 e1 df 8d 3f 35 8b c4 be b8 58 81 bf c9 fe 8b bf
       1.1083947 -0.38387457 -1.01052 -1.0937129
000180 62 8a 0b 3f ac 84 c4 bf ce 77 0d bf 97 b9 ef bf
       0.5450803 -1.5352988 -0.5526093 -1.8728513
000190 7c c1 88 bf d7 ab 94 bf 62 ef f8 be ad f0 82 bf
       -1.0684047 -1.1614941 -0.48620135 -1.0229698
0001a0 ba c1 7d bf f0 a0 1e c0 7a d0 09 bf 74 a9 01 c0
       -0.9912373 -2.4785728 -0.53833735 -2.0259676
0001b0 66 13 b1 be ec 72 df bf 77 17 0d c0 d1 21 91 3e
       -0.34585112 -1.7456946 -2.2045572 0.28346112
0001c0 5f e2 e3 bd e6 1c 87 be 9f bd c2 3d c4 c0 49 3e
       -0.11127161 -0.26389235 0.095088236 0.1970244
0001d0 67 5c a3 bf f6 56 4d bf a2 71 bf be 79 4c 12 bf
       -1.2762574 -0.80210817 -0.37391382 -0.5714794
0001e0 56 03 b8 bf 73 68 19 be 6b 33 22 bf 5e 42 82 bf
       -1.4376018 -0.1498125 -0.6335971 -1.0176504
0001f0 f3 34 4c 3b 15 d2 2f be 03 1c b6 bf 36 c2 fa be
       0.003115949 -0.17169984 -1.4227298 -0.48976296

2.weight f4 [64, 128]
000000 6d a7 69 b8 8a 11 b7 3e b2 b5 7f 3d 7d 5f 02 3f
       -5.5707456e-05 0.3575557 0.062429138 0.50926954
000010 5a d4 fb 3b f2 77 d5 3e 13 f6 af bf 73 08 c5 bc
       0.0076852264 0.41693074 -1.3746971 -0.02405188
000020 57 92 c8 3e d9 a2 95 be 7d c4 29 bf 9a 7d 01 3f
       0.39174148 -0.29225805 -0.6631544 0.5058228
000030 40 06 22 3f 93 fe d0 bf 3f fc 1b 3f 06 d1 b8 3e
       0.63290787 -1.632769 0.6093177 0.36096972
000040 85 f1 83 3e 0b 8d f2 3d 99 e8 50 3d 57 e3 8a 3b
       0.25770202 0.11843308 0.051003072 0.004238527
000050 3c 52 b6 3e fb 78 20 3f 8e d2 45 3f a2 35 23 3e
       0.35609615 0.626846 0.77274406 0.15938428
000060 26 73 d9 3e cc 89 49 be ef 25 b2 bc b9 17 02 bf
       0.42470664 -0.19681472 -0.021746604 -0.5081745
000070 cd f8 2c 3e d3 9e 23 3f af 13 92 3e 27 e2 28 3e
       0.16891785 0.6391422 0.28530642 0.1649252
000080 bf 37 86 3c 10 f0 7f be c2 0d 8e 3e 78 8b b0 bb
       0.016384004 -0.2499392 0.2774487 -0.0053877197
000090 ce cc 2d 3d 78 0c 6e bf 6e d8 ec 3e 3f 18 94 3e
       0.042431645 -0.92987776 0.46258873 0.28924748
0000a0 45 19 ca 3e a4 7e 4c 3e 6b 90 9b 3f cd 13 47 3f
       0.39472404 0.19970185 1.2153448 0.7776459
0000b0 b6 89 2a bf 05 6a a4 3e 62 45 88 3e 21 1b 5c be
       -0.6661638 0.32112136 0.26615435 -0.21494724
0000c0 9e a2 27 be f3 e3 15 be 2c 19 d7 bf a3 73 cb 3e
       -0.16370627 -0.14637737 -1.6804557 0.3973666
0000d0 f1 6e 98 3e 30 60 00 be e6 50 a0 3e 6a 7e 48 3e
       0.29772142 -0.12536693 0.3131172 0.19579473
0000e0 c5 48 d7 3c d9 4a 96 3e 56 ef 80 bf 3b 40 42 3f
       0.026279816 0.2935398 -1.007304 0.7587926
0000f0 56 50 87 3b 59 c0 17 3f 12 f8 fc bd 63 4e cc bf
       0.00412945 0.59277874 -0.12352003 -1.5961422
000100 b8 d1 41 bf 43 de b4 bf 51 00 82 3e 45 a3 4d 3c
       -0.7571063 -1.4130329 0.25390866 0.0125511335
000110 48 e8 05 be 08 34 1f 3f 89 eb 4b 3f c1 17 f7 bf
       -0.1307689 0.6218877 0.79656273 -1.9304124
000120 7d 66 8d be 32 fb 93 be 18 77 12 bf 8d 5b 4e 3f
       -0.27617255 -0.28902584 -0.5721297 0.80608445
000130 ea 2b 9b be 3e 4e e8 be 4c 12 fc be 53 3d 87 be
       -0.3030694 -0.45372194 -0.4923271 -0.26413974
000140 3f 16 24 3f 1b b4 37 be 0f 68 91 be cb 4a 2c bd
       0.64096445 -0.17939799 -0.28399703 -0.042063516
000150 bf 01 8f bd f0 07 b3 3e 47 92 ab bd 03 74 e7 bc
       -0.06982755 0.34966993 -0.083775096 -0.02825356
000160 6b fe 69 3f a1 4a c5 3e 64 3d f8 be d5 85 04 be
       0.91403836 0.385335 -0.48484337 -0.12941678
000170 31 e4 85 bf 84 5c 0e 3f 77 03 d0 bd 20 92 0d bc
       -1.0460263 0.5560992 -0.10156911 -0.008640796
000180 92 88 0d 3f 33 93 6b c0 fe 88 99 3e bb b4 71 bf
       0.55286515 -3.6808593 0.2998733 -0.944164
000190 fe 6c e5 3c 68 13 aa 3e 87 06 ca 3e 20 dd cc 3d
       0.028006073 0.3321793 0.39458105 0.10003114
0001a0 55 26 1e bf 07 ff 5b 3d e6 1c 6d 3e 52 67 06 c0
       -0.6177724 0.05371001 0.23155555 -2.1000562
0001b0 1b 08 26 3f 68 45 b5 be 5b 5f 60 3e cf d8 85 bf
       0.6485612 -0.35404515 0.21911375 -1.045679
0001c0 2a de 44 3f 34 c8 3f bd ba be 8e 3f a4 00 c5 3d
       0.76901495 -0.046821788 1.1151955 0.09619263
0001d0 70 ae 03 3c 7c 9b 0d c0 c3 6f 55 3f 7f 41 b4 3e
       0.008037195 -2.212615 0.8337366 0.3520622
0001e0 56 5a a1 3e ee e1 47 3e 03 c3 c0 bd 3d 9a 92 3e
       0.31514233 0.19519779 -0.094121955 0.286333
0001f0 8f 35 05 3f 2b 0c ff be 97 c1 2c bf c3 6e 44 3f
       0.5203485 -0.4981397 -0.67482895 0.7673151
000200 70 7f 0f 3f 79 bf ee 3e 73 1e 5b be a3 94 d7 3c
       0.5605383 0.46630457 -0.21398334 0.026315993
000210 a9 da 5f 3c a6 df 4a bf fa ee ef bd 88 b8 34 3f
       0.0136629725 -0.7924751 -0.11715503 0.7059407
000220 87 b8 22 3f db f2 a9 3f 7c ea 68 be da 3a 93 be
       0.63562816 1.3277239 -0.22745699 -0.28755838
000230 f9 4f e6 3e df 1c 93 bc 65 9b 5c bd 7e 8f 5e bf
       0.4498289 -0.017958103 -0.053859133 -0.869377
000240 1c 5e 72 3e 78 17 27 3d 59 40 b8 3d a8 e0 24 3e
       0.23668712 0.040793866 0.08996648 0.16101325
000250 30 9c 03 bd 59 a3 46 be 01 08 51 be 66 47 be 3d
       -0.032131374 -0.1939825 -0.2041321 0.09290962
000260 1b df f2 bd 8f dc e6 3c c7 ad a7 3b 6c 3a 53 bc
       -0.1185896 0.028181342 0.0051171514 -0.012892347
000270 20 da 63 be f2 8b 71 3f a2 05 6f be 4b e4 21 be
       -0.22251177 0.94354165 -0.23341992 -0.15809743
000280 96 05 51 3c 2b 48 5b 3f ae 26 d9 bd 56 13 0b be
       0.012757679 0.85656995 -0.10603081 -0.13581595
000290 c6 a0 9a 3d 68 17 0f 40 9c 5c 8e be dc 77 85 bb
       0.07550196 2.2358036 -0.2780503 -0.0040731262
0002a0 c1 7a 8e be 18 90 99 3e 48 06 b1 be 4a 9f 4b bf
       -0.2782803 0.29992747 -0.34575105 -0.7953993
0002b0 cd 1b ec 3e 9b 1a 43 3f d0 c8 61 3e 00 c0 ee 3c
       0.4611496 0.7621247 0.2204926 0.029144287
0002c0 9d 31 15 be 29 d5 3b 3e a6 73 75 be 90 f2 8c 3f
       -0.14569707 0.18343033 -0.23969898 1.1011524
0002d0 31 9e 82 bd f8 e4 df 3c 9b 95 f0 3d df e9 22 3d
       -0.06377829 0.02733086 0.11747285 0.039773818
0002e0 d5 d7 cd 3e 3c fe a1 3e ca 76 2f bd 15 97 5a 3f
       0.4020373 0.31639278 -0.042837895 0.8538678
0002f0 80 44 2f bf 05 aa 68 be 23 45 aa 3d 67 bc 9a be
       -0.684639 -0.22721107 0.08313968 -0.30221865
000300 63 df 8e bd a2 9c 44 be 9e d1 22 bf 22 d8 e5 3e
       -0.069762014 -0.19200376 -0.636011 0.4489146
000310 31 ad b0 be 98 17 b1 bc 6d b1 93 bb 6e e3 a3 3f
       -0.34507135 -0.021617696 -0.004507235 1.2803781
000320 6b 1a 01 3f 3d 88 4e 3e 45 f2 be bd 0d 79 05 3f
       0.50430936 0.20169158 -0.09323553 0.52137834
000330 19 05 d4 3e 62 a7 27 3f 84 6b 11 3d 28 e9 cc 3d
       0.4141014 0.6548978 0.035502926 0.100054085
000340 2a 7e 91 3f 17 47 64 3e e1 4e 47 3f 35 84 a1 3d
       1.1366627 0.22292744 0.77854735 0.078865446
000350 c3 86 f6 bb 1d 51 b6 bd ef c6 37 bf f9 87 79 3b
       -0.007523389 -0.0890219 -0.71787924 0.003807543
000360 0e 14 86 bf c7 6e 52 bd f7 f3 e1 3e b1 fb 9b 3e
       -1.047487 -0.051375177 0.44131443 0.30465463
000370 45 08 10 3f 60 9e e9 bd 5e 25 4e be 85 5d a1 be
       0.5626262 -0.11407161 -0.20131442 -0.31516662
000380 06 f8 60 3e 5d 9f 8f 3f 79 29 99 3e e0 e6 27 3e
       0.21969613 1.1220509 0.29914454 0.16396666
000390 51 a2 43 bf 87 2b 8d be 0c 07 4b 3d 31 18 43 bf
       -0.7641955 -0.2757227 0.049567267 -0.7620879
0003a0 a1 e8 a5 be 80 20 31 3f b3 e9 91 bd cf 59 60 3f
       -0.32404044 0.69190216 -0.07124653 0.8763704
0003b0 c6 c9 d7 bc 5d 9a f7 3e 9b c9 3a bf 0f 95 69 3c
       -0.02634133 0.48359957 -0.72963876 0.01425673
0003c0 60 cc a8 3e c7 51 35 bd 2e 21 d0 3c 19 9a 74 3e
       0.32968426 -0.044267442 0.025406446 0.23886909
0003d0 7e a7 0b 3f f3 b3 e4 3d 64 f7 86 3d 40 70 a4 bd
       0.5455245 0.11167135 0.06590155 -0.080292225
0003e0 92 e6 99 3f f6 92 b6 3d 9a 9d 5a be 58 27 11 bd
       1.202349 0.08914749 -0.21349183 -0.03543791
0003f0 94 d9 d5 bd a5 ba 09 be 62 fe bd be 8a 66 78 3e
       -0.1044189 -0.13450105 -0.3710814 0.24257866

2.bias f4 [64]
000000 7d 9d 8e 3f cb fc 40 bd ee 44 55 bf 03 78 b2 3c
       1.1141812 -0.047116082 -0.83308303 0.021785742
000010 f9 23 eb bd 6b eb a6 3d 76 18 79 bd 45 de e5 bd
       -0.114814706 0.08150371 -0.060814343 -0.11224035
000020 74 78 bf bd 2d b8 fe bd 5e 08 c9 bc 94 1f a3 be
       -0.093491465 -0.124374725 -0.024540123 -0.3186003
000030 26 e7 43 bf f0 56 84 bd 8a c6 10 3e ef 2e e0 bd
       -0.7652458 -0.064618945 0.14138237 -0.10946452
000040 65 d8 ea bd 82 39 5b bd f8 93 7f be 2e 0e b4 bd
       -0.11467055 -0.05352164 -0.2495879 -0.08791767
000050 d2 e7 ae bd 58 08 3a bf 11 4f 9f be f2 86 38 40
       -0.0854031 -0.7266898 -0.3111501 2.8832364
000060 5a 54 dc bc 9f e5 13 be de 5d 43 bd 05 b4 f3 bd
       -0.02689569 -0.14443062 -0.04769694 -0.118995704
000070 bc ad b2 be 91 03 b6 be 81 52 04 be 92 c6 6d 3f
       -0.34898174 -0.35549596 -0.12922098 0.9288112
000080 d8 5e 97 bd 3b 7c 69 3e f4 10 8d bf d2 ca 20 bf
       -0.07391137 0.22801296 -1.1020799 -0.6280948
000090 79 f1 11 bd 42 3e 43 bd 4c b7 c3 bf 0d bb a6 bd
       -0.035630677 -0.047666796 -1.5290313 -0.08141146
0000a0 47 71 28 be 44 17 cd bf 0b 16 94 3f d6 37 a9 bd
       -0.16449462 -1.6022725 1.1569227 -0.08262603
0000b0 5b 51 2c bf 99 c0 de be d5 50 da bd d0 ef 3f be
       -0.6731164 -0.43506315 -0.10659949 -0.18743825
0000c0 2e 08 12 be 03 12 5f bf 07 cc 7e be 55 b4 59 3e
       -0.14260933 -0.8713686 -0.24882518 0.21260197
0000d0 4e be 81 be a1 5e 94 3f 79 9d ce bd d2 b9 8c bd
       -0.25340503 1.1591378 -0.10088629 -0.0687138
0000e0 cc f3 d9 be b1 b3 99 bd c6 89 87 bf ac 2e fa 3d
       -0.42568815 -0.075049765 -1.058892 0.12215933
0000f0 8f 13 60 3f 7f 77 2c be bc 55 cb bd 41 01 0f 3f
       0.87529844 -0.16842459 -0.09928462 0.5586129

4.weight f4 [3, 64]
000000 b6 3c 57 3e 11 ad a7 bf f2 fc 86 bf 7f a8 6c bd
       0.21019253 -1.3099691 -1.0545943 -0.057777878
000010 01 73 15 bc c7 58 60 bd 80 72 39 bd 44 5a 43 bd
       -0.009121657 -0.054772165 -0.04527521 -0.047693506
000020 8c 0b d0 bd 0f b8 5c 3d d5 f3 0b bd 39 a8 32 bf
       -0.101584524 0.05388647 -0.034168083 -0.6978794
000030 8e 5b 5b bf f9 e2 d9 bc fa c9 0e be 99 b1 61 3d
       -0.85686576 -0.026597487 -0.13944235 0.05510101
000040 c4 3a 8e bd b6 db 82 bd b0 1d a7 3c 3d 17 d9 38
       -0.069448024 -0.06389563 0.020399898 0.00010351695
000050 3e 75 03 3e 01 eb 49 be 6f e7 13 be 3d 5f 17 3f
       0.12837693 -0.19718553 -0.14443754 0.591297
000060 04 19 38 3c b5 48 bb 3c e4 9b f0 3d c8 97 ae bd
       0.011236433 0.022861818 0.11748484 -0.08525044
000070 d5 a7 24 3c 97 ce 65 be 91 1e 8e bc b4 13 08 3e
       0.01004978 -0.22442089 -0.01734856 0.13288766
000080 ce 28 01 3e a7 d7 af be ef 6b 73 bc e0 7e d7 be
       0.12613222 -0.34344217 -0.014857276 -0.42088985
000090 37 3e 0f bc 3f 10 c5 3c 30 af 16 be f8 b1 58 bd
       -0.0087428605 0.024055598 -0.14715266 -0.0529041
0000a0 07 16 e2 bc 79 72 bb be fb 21 0b bf 6b 0b 6b 3a
       -0.027598394 -0.36610773 -0.54348725 0.000896624
0000b0 06 1a 82 be 6f 3d 95 be 98 ab b4 bd 59 d7 a2 bc
       -0.2541048 -0.29148433 -0.088217914 -0.019878076
0000c0 ec 6b 90 3d c7 1c 7b bf 67 30 37 bf 9d 8b 4c be
       0.070518345 -0.98090786 -0.7155823 -0.19975133
0000d0 7e c6 b8 be c0 bb 4f bd ce bb a5 bc 34 ad 44 3c
       -0.36088938 -0.05071616 -0.020231154 0.0120041855
0000e0 aa 3b 4b be 08 02 39 bc c2 91 9b bf c1 fe b8 3c
       -0.19846979 -0.011291988 -1.2153857 0.022582414
0000f0 01 64 5b be 52 3d 6a 39 ab 3e 15 3c b9 97 25 be
       -0.21424867 0.00022338823 0.0091091795 -0.16171159
000100 74 c0 ab be db b2 98 bf fd c2 d6 be a1 4c dd bd
       -0.33545268 -1.1929582 -0.4194564 -0.108056314
000110 bb ae 84 bc 7a c0 d2 bc 4a 0e a8 bd b1 49 80 3d
       -0.0161966 -0.025726546 -0.082058504 0.062640555
000120 0b e5 09 be 53 f0 ea 3a 3b 76 7a bd 07 26 28 bd
       -0.13466279 0.0017924405 -0.06114791 -0.04105189
000130 94 3d fe be 2e 83 54 3c cc dd 16 bf 51 44 d0 3d
       -0.49656355 0.012970729 -0.58932185 0.1016928
000140 57 d2 b2 bb 28 ff 8e 3c a4 2a 3c 3d 9b 27 85 be
       -0.0054572034 0.017455652 0.045939103 -0.2600678
000150 00 89 a3 bc 28 b5 4e 3d aa 66 6b bc fb 6e e4 3e
       -0.019962788 0.050465733 -0.014367739 0.4461592
000160 c6 0b 10 bd 3f 23 40 bd 3a f0 a4 bb 94 4a bd 3d
       -0.035167478 -0.046908613 -0.00503352 0.0924274
000170 ca b9 84 bd a1 b2 12 bf d3 2c d8 bc 39 91 9a 3e
       -0.06480749 -0.57303816 -0.026388561 0.3018892
000180 3a 34 c3 bc 8a 6f 6e bf 85 a9 ee bd 1e 40 95 be
       -0.023828615 -0.93138945 -0.11653427 -0.2915048
000190 b2 6c 8e 3b 9d 1d 2e bd ee fa 1b 3e 1e a8 e0 bd
       0.0043464536 -0.04250871 0.15232441 -0.10969566
0001a0 7f 5c 85 bb 63 16 87 be 5c f4 50 be 5d 89 cd 3d
       -0.0040698643 -0.26384267 -0.20405716 0.100359656
0001b0 ae 60 32 bf 62 a6 24 be dc e3 0b bc 8b df c4 3b
       -0.6967877 -0.16079095 -0.008538213 0.0060080937
0001c0 10 ce 72 3c c9 40 7a 3e bc 12 f5 be 7d 5e ac 3e
       0.014819637 0.24438776 -0.47865856 0.3366584
0001d0 26 c8 27 bf ee 04 0c c0 4f 82 07 bd c5 99 da b9
       -0.6553978 -2.187801 -0.033083256 -0.00041694767
0001e0 d7 16 63 3c c3 10 c2 3d c2 59 98 be 35 fd f7 be
       0.013860426 0.09475853 -0.2975598 -0.4843537
0001f0 de 28 95 be d0 6e 37 bc 47 60 10 bc f0 39 0f c0
       -0.29132742 -0.011195853 -0.008812017 -2.2379112
000200 76 3e 28 bf 37 b0 a4 bc 44 3b 32 be ce 60 50 bd
       -0.6572031 -0.020103557 -0.1740542 -0.05087357
000210 24 e1 87 bd 0b 80 d6 3c 34 aa ab 3c 37 8c 61 3d
       -0.06634739 0.026184103 0.020955183 0.05506536
000220 ca 81 e4 3d 1a 04 54 bc 3d 0b af bc 6d 83 fe 3c
       0.11157568 -0.012940431 -0.021367664 0.031068528
000230 ff 8c f4 3e 58 e2 b2 bd a2 75 75 bd 40 c4 52 bd
       0.4776382 -0.08734578 -0.059926637 -0.05145669
000240 10 b5 25 3d 81 84 4a bc c1 a8 52 bd 0b 18 18 bc
       0.040455878 -0.012360693 -0.051430468 -0.009283076
000250 33 2a a6 bd c9 25 37 be f6 bc 84 3c d0 92 12 3f
       -0.081135176 -0.17885508 0.016203385 0.5725527
000260 d9 97 e7 3d 9f 79 1d bc c0 89 4e 3c 69 60 85 bd
       0.113082595 -0.009611516 0.012606084 -0.065125294
000270 36 68 74 bc e2 5e 5b bd 39 c6 64 bd 87 02 58 bf
       -0.014917424 -0.053557284 -0.055853102 -0.84378856
000280 63 1b ad bc 17 4f ac bf 44 6e 4c bf 7b 99 84 bd
       -0.021131223 -1.3461636 -0.7985575 -0.064745866
000290 8d 8b 0f bd fe 07 c2 3d c2 b0 7e bf 80 a5 08 3b
       -0.035045195 0.09474181 -0.9948846 0.0020850599
0002a0 2e de e8 bc e5 c8 42 3e f1 26 00 be 81 a1 a3 bb
       -0.028426256 0.19021948 -0.12514855 -0.004993618
0002b0 8d 73 61 be 28 29 39 be 82 ff e3 3c 7b 17 6f bd
       -0.22016735 -0.18082106 0.027831797 -0.058372002
0002c0 d1 6a 2b bd 75 2e 8d be 81 d4 a3 bd 98 c4 c0 3e
       -0.041849915 -0.27574506 -0.07999516 0.3764999
0002d0 17 ec d3 bd a6 05 59 bd 0a 3d 1a 3e ee f2 6f bd
       -0.10347765 -0.052983902 0.15062347 -0.058581285
0002e0 19 34 25 bc 39 e6 8a bd 20 6a 18 bf ea d8 2d bb
       -0.010083222 -0.06782193 -0.59536934 -0.0026526996
0002f0 61 4b 23 be 61 8a d6 bb 8d 6c 20 3c 9b cb cc 3d
       -0.15946724 -0.006547258 0.0097915055 0.09999772

4.bias f4 [3]
000000 33 b0 24 40 ed 48 ef 3f 52 0b f7 3f
       2.5732543 1.869413 1.930033
