dqn_snake.pth (torch, 42989 bytes, 6 tensors)

0.weight f4 [128, 11]
0	0xbe2ae93e	-0.16690537
1	0x3e9239fd	0.28559867
2	0xbe7f0e0c	-0.24907702
3	0xbcb92f1a	-0.022605468
4	0x3d279ef2	0.040923066
5	0xbea34920	-0.31891727
6	0xbde890fe	-0.1135578
7	0xbeade47c	-0.33963382
8	0xbed966fb	-0.4246138
9	0xbe7d6d4b	-0.24748723
10	0xbea08a85	-0.31355682
11	0xbebacadf	-0.36482903
12	0xbe9d56d7	-0.30730316
13	0xbe9f3a66	-0.31099242
14	0xbee1e9f2	-0.441238
15	0x3d8e009d	0.06933711
16	0xbdcf4d5c	-0.10122177
17	0xbed7fd89	-0.4218562
18	0xbf32df1c	-0.6987169
19	0xbeea0a9a	-0.45711213
20	0xbd0020e8	-0.03128138
21	0xbe803e58	-0.25047565
22	0x3e8c0f4a	0.27355415
23	0x3e00540c	0.12532061
24	0xbe2eea84	-0.17081648
25	0xbc86c4bb	-0.01645123
26	0x3e7f90b8	0.2495755
27	0x3dfa0da9	0.12209637
28	0x3e30dcb2	0.17271689
29	0x3d7edd4a	0.062222756
30	0xbe20d356	-0.15705618
31	0xbe4d6469	-0.20057835
32	0xbe3fd768	-0.18734515
33	0x3eb44fff	0.35217282
34	0x3f1e4f09	0.6183935
35	0xbe35215b	-0.17688505
36	0xbeecbc29	-0.46237305
37	0xbe21bf17	-0.15795551
38	0x3e2b68fa	0.16739264
39	0x3eb647a7	0.3560154
40	0xbbe8a598	-0.0070998184
41	0xbd257bc6	-0.040401243
42	0x3e9380c2	0.28809172
43	0xbdba7c21	-0.09105707
44	0xbf34ee47	-0.7067608
45	0x3e138f26	0.14410076
46	0xbde91879	-0.11381621
47	0x3f4c6787	0.7984547
48	0xbe1dd841	-0.15414526
49	0x3f01ebc0	0.5075035
50	0x3f17d162	0.5930387
51	0xbdd3b3ac	-0.10337004
52	0xbecf781b	-0.4052132
53	0x3e3af4a6	0.18257388
54	0xbdc6f8fa	-0.09715457
55	0x3f7eb0e0	0.9948864
56	0xbe647679	-0.22310819
57	0xbea11a79	-0.3146551
58	0x3d3afc4f	0.045650776
59	0x3e2ce4ee	0.16884205
60	0x3f2692cb	0.6506774
61	0x3fa65d00	1.2997131
62	0x3f410a3a	0.7540623
63	0x3f232061	0.6372128
64	0x3dacf448	0.084450305
65	0xbeedde55	-0.46458688
66	0x3a52a729	0.0008035773
67	0x3f161e72	0.58640206
68	0x3d840ee4	0.06448153
69	0x3db6d9dd	0.08928273
70	0x3f3909fe	0.7228087
71	0xbedfcbe9	-0.4371026
72	0xbdb58b25	-0.0886443
73	0xbea04c34	-0.31308138
74	0xbfb20fdc	-1.391109
75	0xbea50c97	-0.32236168
76	0xbf23bff3	-0.63964766
77	0x3eb32f9a	0.34997255
78	0x3ddb6933	0.107134245
79	0xbe211c60	-0.1573348
80	0xbe3b9dac	-0.18321866
81	0xbe7506d0	-0.2392838
82	0xbe5b49a9	-0.21414818
83	0xbe658fe9	-0.22418179
84	0xbd44ab1e	-0.048014753
85	0xbcea8683	-0.028628593
86	0xbe11dae7	-0.14243661
87	0xbd782495	-0.060581762
88	0x3f25d395	0.64775974
89	0x3e14af47	0.14519988
90	0x3e94654b	0.2898353
91	0x3e9dbd96	0.30808705
92	0x3e03baa9	0.12864174
93	0x3ea259a0	0.31709003
94	0xbe0be7f2	-0.13662699
95	0xbd1ee933	-0.038796615
96	0xbdca3e3e	-0.09875153
97	0xbf2150de	-0.6301402
98	0xbeb62f70	-0.35583067
99	0x3e052dfb	0.13005821
100	0x3f1ee43c	0.6206701
101	0x3ed7460e	0.42045635
102	0x3f383666	0.71958005
103	0x3de88c26	0.11354856
104	0x3f53cb6e	0.82732284
105	0x3e917205	0.28407302
106	0x3e837fa5	0.25683323
107	0xbd96abf6	-0.07357018
108	0xbddc4162	-0.10754658
109	0xbdc69409	-0.09696204
110	0x3f809c30	1.0047665
111	0xbf4ce0b4	-0.8003037
112	0x3fc6bfdc	1.5527301
113	0x3eaf4ebb	0.34239754
114	0x3b8e1401	0.0043358807
115	0x3a902d5e	0.0010999849
116	0xbd73146d	-0.05934565
117	0xbe88fe59	-0.26756552
118	0xbd65ae0d	-0.05607419
119	0x3d516a49	0.051126752
120	0x3e680642	0.22658637
121	0x3dc4b2bc	0.096044034
122	0xbd347c71	-0.04406399
123	0x3ebd57a4	0.36980927
124	0xbe445785	-0.19174011
125	0x3e8a64f0	0.27030134
126	0xbe971208	-0.29505944
127	0xbf562e8e	-0.83664787
128	0xbf92867e	-1.1447294
129	0xbf7409b7	-0.95327324
130	0x3e9c64fd	0.30545798
131	0xbf2726ed	-0.6529377
132	0xbe97fb02	-0.2968369
133	0x3ef207e1	0.47271636
134	0xbe306453	-0.1722577
135	0x3f214aba	0.6300465
136	0x3f7e9ddd	0.9945963
137	0x3d1ea6b9	0.038733218
138	0x3e9727aa	0.2952245
139	0x3f144867	0.5792298
140	0x3ec63274	0.38710368
141	0xbf60fcbb	-0.87885636
142	0xbf351587	-0.70735973
143	0xbf22e397	-0.63628525
144	0xbd8f7d97	-0.07006376
145	0xbf8d0e7a	-1.1020043
146	0xbed53e69	-0.41649178
147	0xbd217678	-0.03941962
148	0xbea0359d	-0.31290904
149	0xbe7be8a5	-0.24600466
150	0xbfae92ce	-1.3638551
151	0xbf9a9a3a	-1.2078316
152	0xbf2eb675	-0.6824716
153	0xbf59350a	-0.84846556
154	0x3eb12345	0.3459722
155	0xbd51e26b	-0.05124132
156	0x3eb34d71	0.3502002
157	0xbe49fde4	-0.19725758
158	0xbe87f0f9	-0.26551035
159	0xbe961a26	-0.29316825
160	0xbe29f77c	-0.16598314
161	0xbf0407e3	-0.51574534
162	0xbed01cf3	-0.40647087
163	0xbe8c0718	-0.27349162
164	0xbe9a1f7f	-0.30102155
165	0x3e88271a	0.26592332
166	0x3e3125ea	0.1729962
167	0x3dd5d970	0.104418635
168	0xbd89a1b8	-0.067202985
169	0xbd279683	-0.040915024
170	0xbe9fc5bd	-0.3120555
171	0xbe44ca61	-0.19217826
172	0xbe3c843e	-0.18409821
173	0x3d6d561f	0.05794346
174	0xbe298789	-0.16555609
175	0xbdab92e3	-0.08377626
176	0x3e0b71dd	0.13617654
177	0x3e520066	0.20507964
178	0xbb36671f	-0.002783246
179	0x3cb13ed4	0.021636404
180	0xbd9f1fb9	-0.077697225
181	0x3e865175	0.26234022
182	0xbe2802ee	-0.16407368
183	0xbe6436c2	-0.22286513
184	0xbe544ef7	-0.20733248
185	0xbee48cdf	-0.44638726
186	0xbec8a1b3	-0.39185867
187	0xbda76e5d	-0.08175347
188	0x3d2cecfd	0.042218197
189	0x3ef4d6d1	0.47820142
190	0xbed35f8e	-0.4128384
191	0xbea81282	-0.3282662
192	0x3c8e466d	0.017367566
193	0xbe8bbfb5	-0.27294698
194	0xbe324be6	-0.17411765
195	0xbe3bd52a	-0.18343034
196	0xbf19d5a2	-0.600916
197	0xbec3afe8	-0.38220143
198	0x3ed2cbbe	0.41171068
199	0xbe581528	-0.2110182
200	0x3f1ac528	0.60457087
201	0x3ebe3166	0.37147063
202	0xbe7c81df	-0.24658917
203	0x3eef0fdf	0.46691796
204	0x3d96d424	0.07364681
205	0xbe706bca	-0.23478618
206	0x3ecc4326	0.3989498
207	0xbd95b9e5	-0.07310847
208	0xbf159ea9	-0.5844522
209	0xbf113375	-0.5671914
210	0xbf17c0bc	-0.59278464
211	0x3da9e6f9	0.08296008
212	0x3e2530b9	0.16131867
213	0xbe67144a	-0.22566333
214	0xbe171bf8	-0.14756763
215	0x3db416da	0.08793421
216	0xbeca5ee4	-0.3952552
217	0xbf2a2fdb	-0.6647927
218	0xbe81acb9	-0.2532709
219	0xbf0d13ae	-0.55108154
220	0x3e882e27	0.2659771
221	0x3e3fb561	0.18721534
222	0xbb861418	-0.004091751
223	0xbde99046	-0.11404471
224	0xbc7813b9	-0.015141421
225	0xbedc636e	-0.4304461
226	0xbe407e71	-0.18798234
227	0xbf00b50c	-0.50276256
228	0xbed5c15a	-0.41749078
229	0xbeb525a9	-0.35380295
230	0xbe776ff4	-0.241638
231	0x3ea68061	0.3251982
232	0xbed86b15	-0.42269197
233	0x3cb938c8	0.022610083
234	0x3f14a53d	0.58064634
235	0x3f64f8c2	0.89442074
236	0x3f1ff944	0.62489724
237	0x3f3a35d4	0.72738385
238	0x3eabfb71	0.33590272
239	0x3db86c7c	0.09005067
240	0xbf893731	-1.0719968
241	0xbf0750dd	-0.5285776
242	0xbc17ae7f	-0.009257912
243	0x3ec46863	0.3836089
244	0x3e8e0536	0.2773835
245	0x3f1d17f1	0.61364657
246	0xbea1214a	-0.3147071
247	0x3ee61fa5	0.44946018
248	0xbf06a0f0	-0.5258932
249	0xbf1f85b4	-0.6231339
250	0xbf8bfb17	-1.0936002
251	0xbd59f963	-0.05321635
252	0xbf30f45d	-0.6912287
253	0xbe9362f1	-0.28786424
254	0x3ef33840	0.47503853
255	0x3f16412a	0.5869318

0.bias f4 [128]
0	0xbe16c3de	-0.14723155
1	0xbd67deec	-0.05660908
2	0xbf375429	-0.71612793
3	0xbf123278	-0.5710826
4	0xbf4b94bf	-0.79523844
5	0xbf4050ef	-0.75123495
6	0xbdf5a402	-0.11994173
7	0xbea9ef90	-0.33190584
8	0xbf277b54	-0.6542256
9	0xbf91680c	-1.1359878
10	0x3f6c4a25	0.92300636
11	0x3ea4b5bd	0.32169905
12	0xbfb28b41	-1.3948747
13	0x3f37250d	0.7154091
14	0xbe86269a	-0.26201326
15	0xbecd98f0	-0.40155745
16	0xbee8f9e7	-0.4550316
17	0xbea7041a	-0.32620317
18	0xbedde154	-0.43335974
19	0xbda84672	-0.082165614
20	0xbe4aa32e	-0.1978881
21	0xbfb15a14	-1.3855615
22	0xbe66eb0b	-0.225506
23	0xbf5a354f	-0.8523759
24	0xbf3ecbe1	-0.74529845
25	0xbf49fa56	-0.7889761
26	0xbecbc187	-0.39796087
27	0x3e86095e	0.26179022
28	0xbe277825	-0.16354425
29	0x3fc5cb94	1.5452752
30	0xbe4f956e	-0.20271847
31	0xbf29a7f1	-0.66271883
32	0x3e205d2f	0.15660547
33	0xbf283289	-0.6570211
34	0xbf1b0d34	-0.6056702
35	0xbd1f6c34	-0.03892155
36	0xbebe054c	-0.37113416
37	0x3fc522eb	1.5401281
38	0xbef00f75	-0.46886793
39	0xbeb72f8b	-0.3577846
40	0xbe86faae	-0.26363128
41	0xbee28f92	-0.4425016
42	0x3f15d648	0.5853009
43	0xbf8525b5	-1.0402132
44	0xbd492cc6	-0.049114965
45	0xbd00ca1e	-0.031442754
46	0x3bc47ec9	0.0059965593
47	0xbe30a572	-0.17250612
48	0xbf863c32	-1.048712
49	0xbf710ba6	-0.941584
50	0xbe78efc3	-0.24310212
51	0xbf671ca2	-0.90278065
52	0xbf6ae9b2	-0.9176284
53	0x3eb1e07a	0.34741575
54	0xbe93bff6	-0.28857392
55	0xbf23d4b9	-0.63996464
56	0xbfc98978	-1.5745077
57	0x3e6482a5	0.22315462
58	0xbe9d6849	-0.30743626
59	0x3da7bd43	0.08190396
60	0x3e5b67df	0.21426342
61	0xbf0492c1	-0.5178643
62	0xbe42de53	-0.19030122
63	0xbccc8991	-0.02496794
64	0xbeb04aad	-0.34431973
65	0xbf1c4f17	-0.6105818
66	0xbea5d1b8	-0.32386565
67	0x3e7abd61	0.24486305
68	0xbedf0534	-0.43558657
69	0x3f6b51be	0.91921604
70	0xbe59638c	-0.2122938
71	0x3e155fe9	0.14587368
72	0x3ee89c2e	0.45431656
73	0xbf2f05ac	-0.6836803
74	0xbf5f725d	-0.8728388
75	0xbe909a7c	-0.28242862
76	0xbe90dca3	-0.28293332
77	0xbde70128	-0.112795174
78	0xbf7e641c	-0.99371505
79	0x3ea8d60f	0.32975814
80	0xbef796d5	-0.48357263
81	0xbf2b1523	-0.6682913
82	0x3ca0534f	0.019570975
83	0x3eb95a88	0.36201882
84	0xbc04e8fa	-0.008112187
85	0x3fbbccf2	1.4671919
86	0xbf46b39f	-0.7761783
87	0xbf15529c	-0.58329177
88	0xbf955542	-1.1666644
89	0xbdaa9642	-0.08329441
90	0xbe42f89f	-0.19040154
91	0xbf2a92ce	-0.66630256
92	0xbf945503	-1.1588444
93	0xbead4461	-0.3384123
94	0xbd57ddf2	-0.052701898
95	0x3e97bbb4	0.29635394
96	0xbfd64963	-1.6741146
97	0x3f3383e7	0.7012314
98	0x3e26fd6d	0.16307612
99	0xbd4ee2e9	-0.050509367
100	0xbf3b5110	-0.73170567
101	0xbee15191	-0.44007543
102	0xbe7ea57f	-0.24867819
103	0xbf9b4804	-1.2131352
104	0xbf91a9ea	-1.1379979
105	0x3ec22193	0.3791624
106	0xbe67fc31	-0.22654797
107	0x3f1d06ad	0.6133831
108	0xbf6242e3	-0.8838331
109	0xbec4c48b	-0.384312
110	0xbe89bbf9	-0.26901224
111	0xbf06ebf4	-0.52703786
112	0xbf888544	-1.066567
113	0xbf1354f9	-0.57551533
114	0xbf3d9e40	-0.74069595
115	0xbe79ef9f	-0.24407814
116	0xbebf0fa7	-0.3731663
117	0xbe85be06	-0.2612154
118	0x3e35c1b3	0.17749672
119	0xbe11925f	-0.14215992
120	0xbeba2a1a	-0.36360246
121	0xbf34b9ab	-0.70595807
122	0x3f26d8c7	0.65174526
123	0xbf3f4ab3	-0.74723357
124	0xbebff76d	-0.37493458
125	0xbe93efec	-0.28893983
126	0xbeb7b202	-0.35877997
127	0xbfa72db3	-1.3060821

2.weight f4 [64, 128]
0	0xbe01f7e4	-0.12692219
1	0xbd10c1da	-0.03534112
2	0xbe539d24	-0.20665413
3	0x3ddfeb2f	0.109335296
4	0xbc2c200c	-0.010505687
5	0xbe7bceab	-0.24590556
6	0xbe48865b	-0.19582503
7	0xbd40ca06	-0.047067665
8	0xbec1ecdf	-0.3787603
9	0xbf0cf26e	-0.5505742
10	0xbd5e09d9	-0.05420861
11	0xbd759950	-0.059960663
12	0xbd151255	-0.036394436
13	0xbd744ed3	-0.059645485
14	0xbcf68a03	-0.030095106
15	0xbcccaf80	-0.024986029
16	0xbe633272	-0.22187212
17	0xbd966d22	-0.07345034
18	0xbea2056f	-0.3164477
19	0x3c9ead32	0.019369695
20	0xbe933282	-0.28749472
21	0xbf17fc62	-0.5936948
22	0xbce55fae	-0.027999725
23	0xbd34011c	-0.04394637
24	0xbf324db6	-0.6964983
25	0xbf323e29	-0.696261
26	0xbed4d8db	-0.41571698
27	0xbd217609	-0.039419208
28	0xbd8a62ce	-0.06757127
29	0x3e71f853	0.23629884
30	0x3c851750	0.016246468
31	0xbed5d455	-0.4176356
32	0xbcdcdf4e	-0.026961949
33	0xbe299e8c	-0.16564387
34	0xbdff6445	-0.12470297
35	0x3adcf902	0.0016858878
36	0xbf6d817c	-0.927757
37	0x3e343e77	0.17601953
38	0xbdb1d7c4	-0.08683732
39	0xbec188a0	-0.3779955
40	0xbe314902	-0.17313007
41	0xbe9608e8	-0.2930367
42	0xbd8897da	-0.066695884
43	0xbeff0170	-0.49805784
44	0xbf097398	-0.5369201
45	0xbedeebfb	-0.43539414
46	0xbee8b979	-0.45454004
47	0xbcca4398	-0.024690434
48	0xbf3597a6	-0.7093452
49	0xbe358acb	-0.17728727
50	0xbc616838	-0.013757758
51	0xbeeed246	-0.466448
52	0xbed42a2a	-0.4143842
53	0xbc89400c	-0.016754173
54	0xbdecc958	-0.11561841
55	0xbea4a246	-0.32155055
56	0xbee62ec3	-0.4495755
57	0xbe6dd316	-0.23225054
58	0xbead6589	-0.33866528
59	0xbdd58465	-0.10425643
60	0x3e0bd5fe	0.1365585
61	0xbedf7b5b	-0.436488
62	0xbe9a9dc5	-0.30198494
63	0xbd71fca6	-0.059078835
64	0xbf970285	-1.1797644
65	0xbdd3ead1	-0.10347522
66	0x3d84e564	0.06489065
67	0xbe61149d	-0.2198052
68	0xbf686296	-0.9077543
69	0xbb6032d0	-0.0034209974
70	0xbf0a4fc6	-0.54027975
71	0xbf1506b7	-0.5821337
72	0xbda57b7b	-0.08080193
73	0xbef61ba9	-0.48067978
74	0xbf091871	-0.5355292
75	0x3d2ab66c	0.041677877
76	0xbe9911c5	-0.2989637
77	0x3c0ad098	0.008472584
78	0xbe8a6148	-0.27027345
79	0x3decae73	0.11556711
80	0xbebb95fe	-0.36637872
81	0xbe30eca5	-0.17277773
82	0x3df30ca2	0.11867644
83	0x3dd509a1	0.10402227
84	0x3cb8b6b7	0.022548063
85	0xbed9e890	-0.42560244
86	0xbe991fca	-0.29907066
87	0xbf604048	-0.87598085
88	0xbeacaa41	-0.33723643
89	0xbd168b4e	-0.036753945
90	0xbd55ea9d	-0.052225698
91	0xbf131649	-0.5745588
92	0xbd857958	-0.06517285
93	0xbd6af0b8	-0.057358474
94	0xbd9671d3	-0.07345929
95	0x3ea20f1a	0.31652147
96	0xbeb5f0b7	-0.35535213
97	0xbe20061c	-0.1562733
98	0xbedcc4bc	-0.43118846
99	0xbe0e4a6c	-0.13895577
100	0xbf1149bd	-0.5675314
101	0xbf669bc5	-0.90081435
102	0xbf403cfe	-0.75093067
103	0xbf0b8140	-0.54494095
104	0xbf16aa45	-0.5885356
105	0xbec6ea4d	-0.38850632
106	0xbe79cd82	-0.24394801
107	0xbefcc0ec	-0.49365938
108	0xbe49f382	-0.19721797
109	0xbf1b0657	-0.6055655
110	0xbdaa52d0	-0.083165765
111	0xbb4cebfd	-0.003126859
112	0xbee6c13f	-0.4506931
113	0xbf0eee3c	-0.55832267
114	0xbec76670	-0.3894534
115	0xbd82f936	-0.063951895
116	0xbcf7ee7e	-0.03026509
117	0xbe9e18e8	-0.30878377
118	0xbec26fab	-0.3797582
119	0xbe55e943	-0.20889764
120	0xbe93d70d	-0.28875008
121	0xbeeae087	-0.45874426
122	0x3ecd459d	0.40092173
123	0xbf0ac24d	-0.5420273
124	0xbcbd2341	-0.0230881
125	0xbe20514a	-0.1565601
126	0xbd49775f	-0.049186107
127	0xbf00e024	-0.5034201
128	0x3e3516cf	0.17684482
129	0x3d5bbeb3	0.05364866
130	0xbd9a0c20	-0.07521844
131	0xbe902c36	-0.2815873
132	0xbee02b6a	-0.43783122
133	0xbd81e1dc	-0.063419074
134	0x3da63741	0.081160076
135	0x3c5faba9	0.013651767
136	0xbd862b4b	-0.06551226
137	0xbdadd4a0	-0.084878206
138	0x3e88f354	0.26748145
139	0x3e047cce	0.12938234
140	0xbd05bcb5	-0.03265067
141	0x3ec0ce6a	0.3765748
142	0x3e06db8c	0.13169688
143	0xbda04cfe	-0.07827185
144	0xbd8052bb	-0.062657796
145	0xbd9a3964	-0.07530478
146	0xbe1a60ee	-0.15076038
147	0x3d79cba4	0.060985222
148	0x3e445e10	0.19176507
149	0xbcf113cc	-0.029428385
150	0xbe27fbac	-0.16404599
151	0xbec68642	-0.38774306
152	0xbe1df056	-0.15423712
153	0xbec75611	-0.3893285
154	0xbbd04909	-0.0063563627
155	0x3cb274f2	0.02178428
156	0x3d0b18d6	0.033959232
157	0x3fb26bb0	1.3939114
158	0x3dc9675f	0.098341696
159	0xbef4dae9	-0.47823265
160	0xbea81aa3	-0.32832822
161	0xbd27d1b5	-0.040971477
162	0xbe9f1f71	-0.31078675
163	0xbe05b023	-0.13055472
164	0xbe359374	-0.1773203
165	0x3f86b5ef	1.0524272
166	0xbe185ce1	-0.1487918
167	0xbe3948a0	-0.1809411
168	0x3d2355c2	0.039876707
169	0x3b6f9065	0.0036554572
170	0x3e5861f4	0.21131116
171	0xbf43148a	-0.76203215
172	0x3db5b21d	0.08871863
173	0x3e74cc45	0.23906048
174	0xbe84ab9a	-0.25912172
175	0xbd093256	-0.03349527
176	0xbedc6ec2	-0.43053252
177	0xbddd7ee1	-0.10815216
178	0x3d478187	0.04870751
179	0xbda0e28f	-0.078557126
180	0xbe3b95c7	-0.18318854
181	0x3f0d28e4	0.5514052
182	0xbe7a11a6	-0.24420795
183	0xbd458ce8	-0.04823008
184	0xbd8a00a2	-0.06738402
185	0x3d8ae8f4	0.067827135
186	0x3d86eba7	0.06587916
187	0x3ef7e502	0.48416907
188	0x3e81e7b6	0.25372094
189	0xbe5aa871	-0.21353318
190	0xbdc8a790	-0.09797585
191	0x3e39d86f	0.18148969
192	0x3e8e1a2d	0.27754346
193	0xbd913a16	-0.07091157
194	0x3d8e2e67	0.06942444
195	0x3e869acf	0.26289985
196	0xbe805097	-0.25061485
197	0x3ee0f93a	0.43940145
198	0xbe1706f9	-0.14748754
199	0x3dcd6ec3	0.10030892
200	0x3efed0f3	0.4976879
201	0x3da9e893	0.08296313
202	0xbeab6c15	-0.33480898
203	0xbe11e0b3	-0.14245872
204	0xbf07d65a	-0.5306145
205	0x3d3d9ea6	0.046293877
206	0xbe1bdf91	-0.15222003
207	0xbf04a066	-0.5180725
208	0x3e0a6446	0.13514814
209	0xbd54c070	-0.051941335
210	0xbd1ec8e1	-0.03876579
211	0x3ed0cf3c	0.40783107
212	0xbbea8de0	-0.007158026
213	0x3f0729c3	0.527981
214	0x3cf61954	0.030041374
215	0xbd2b5059	-0.041824672
216	0x3c293282	0.010326983
217	0x3dc73fab	0.097289406
218	0x3d0e64ce	0.034764104
219	0x3d77e88d	0.060524512
220	0x3dc626f0	0.096753955
221	0xbd4c749d	-0.0499159
222	0x3dc445f7	0.09583657
223	0x3e355323	0.17707495
224	0xbea1f3c3	-0.31631288
225	0x3eb94c63	0.3619109
226	0x3d833bc1	0.064078815
227	0x3eea40de	0.45752615
228	0x3dd5a4be	0.10431813
229	0x3cadbabb	0.021207204
230	0x3e9e471a	0.3091362
231	0xbe3402f8	-0.17579257
232	0xbe88fb28	-0.26754117
233	0x3e577c6b	0.21043555
234	0x3e0917f8	0.1338805
235	0x3e886314	0.2663809
236	0xbe13645f	-0.14393757
237	0x3e265045	0.16241558
238	0x3dced3b0	0.1009897
239	0xbed87ab2	-0.4228111
240	0xbea95afc	-0.33077228
241	0x3dc397cb	0.095504366
242	0xbf06013f	-0.5234565
243	0x3d10b794	0.035331324
244	0x3e63f7e1	0.22262527
245	0xbd8a589a	-0.06755181
246	0xbbbd8f97	-0.0057849395
247	0x3e62a147	0.22131835
248	0x3d4efeef	0.050536092
249	0x3e126bfb	0.14299004
250	0x3f1adb50	0.60490894
251	0xbeadcf0a	-0.3394702
252	0x3ddce00e	0.107849225
253	0xbeb0c3aa	-0.3452428
254	0xbdc330ff	-0.0953083
255	0xbe17b902	-0.14816669

2.bias f4 [64]
0	0x3e27d91e	0.16391417
1	0x3ffa6b93	1.9564079
2	0xbd8ff560	-0.070292234
3	0x3d710031	0.058838073
4	0xbd87bc01	-0.06627656
5	0xbdd12aa7	-0.102132134
6	0xbc99b8f8	-0.018764958
7	0x3e7e7457	0.24849068
8	0xbaedbf3d	-0.0018138658
9	0xbe838726	-0.25689048
10	0xbe0469f3	-0.12931041
11	0x3b256b9e	0.0025241147
12	0x3f2203d9	0.6328712
13	0x3ec9ddac	0.39426935
14	0xbe055029	-0.1301886
15	0x3d3fa31c	0.046786413
16	0xbd398875	-0.04529615
17	0x3e0b4f7c	0.1360454
18	0xbe164f71	-0.14678742
19	0x3e1ed263	0.15509944
20	0xbd979f23	-0.074034
21	0xbd3c8e15	-0.046033937
22	0xbf1a030d	-0.60160905
23	0x3ee849c4	0.4536878
24	0x3c1d6adb	0.009607996
25	0xbdb31413	-0.08744063
26	0xbd4dfa51	-0.05028755
27	0xbd1dd460	-0.038532615
28	0xbd84d531	-0.064859755
29	0xbbd89876	-0.0066099716
30	0x3b9c2e27	0.004766244
31	0xbe016d97	-0.12639461
32	0xbdf8dfbb	-0.12152048
33	0xbed66ce6	-0.41879958
34	0xbdeb2eaf	-0.114835136
35	0x3f118188	0.56838274
36	0xbd3eb730	-0.04656142
37	0x3d6fefb7	0.05857822
38	0x3fde3a34	1.7361512
39	0x3f11add5	0.5690587
40	0x3a295662	0.00064597104
41	0xbc8a7f70	-0.01690647
42	0xbe3c8b30	-0.18412471
43	0x3e7732c7	0.24140464
44	0xbee2aeac	-0.4427389
45	0x3e67d33a	0.2263917
46	0xbe113b79	-0.14182843
47	0x3f885a8c	1.0652633
48	0xbd469b37	-0.04848787
49	0xbf1242b2	-0.5713302
50	0xbe786abf	-0.2425947
51	0xbd1e9ecc	-0.03872566
52	0xbe8b7f10	-0.27245378
53	0xbcf113fd	-0.029428476
54	0xbeaa889d	-0.33307353
55	0xbe54a8eb	-0.20767562
56	0x3b314bf5	0.002705333
57	0xbdc5f402	-0.096656814
58	0xbe6fd359	-0.23420466
59	0xbe264448	-0.16236985
60	0x3f8c59c8	1.0964899
61	0xbf464446	-0.77447927
62	0xbed96ea3	-0.42467222
63	0xbd3d4071	-0.046204034

4.weight f4 [3, 64]
0	0xbc80fb19	-0.015744733
1	0x3f273cca	0.6532713
2	0xbd956964	-0.07295492
3	0xbddd1970	-0.107958674
4	0xbd8ef298	-0.06979865
5	0xbcc78684	-0.024356134
6	0xbd92d4ff	-0.07169532
7	0xbea6201f	-0.3244638
8	0xbd98ab50	-0.0745455
9	0xbf1d04b5	-0.6133531
10	0xbc900420	-0.017580092
11	0xbf631555	-0.88704425
12	0xbe2c440b	-0.16822831
13	0xbb0d7b82	-0.002158851
14	0x3dc95341	0.098303325
15	0xbb9e6a5d	-0.004834457
16	0xbd7600c3	-0.06005932
17	0xbe38a292	-0.18030766
18	0xbd39547d	-0.04524659
19	0xbe0f3975	-0.13986762
20	0xbcc522f1	-0.024064513
21	0xbd5c3402	-0.053760536
22	0xbe7b1e83	-0.24523358
23	0xbd4dddc0	-0.050260305
24	0xbf533778	-0.82506514
25	0x3e3d6ec4	0.18499285
26	0x3cc00300	0.02343893
27	0xbd5ffca0	-0.05468428
28	0xbd95929d	-0.07303355
29	0xbd14d6e7	-0.03633776
30	0xbd1d1e28	-0.038358837
31	0x3d8fb5ef	0.07017123
32	0xbe384433	-0.17994766
33	0xbe89bc15	-0.26901308
34	0xbdb67c76	-0.08910458
35	0xbe3c433d	-0.18385024
36	0xbe2d0e4d	-0.16899987
37	0xbd1c30f1	-0.03813261
38	0x3ef25409	0.4732974
39	0xbb00ec2b	-0.0019672017
40	0xbf86a0cd	-1.0517823
41	0xbbacb03e	-0.005270033
42	0x3c965358	0.018350288
43	0xbc850f1f	-0.016242562
44	0xbdb859ef	-0.090015285
45	0xbf9bf6b8	-1.2184668
46	0x3ce68057	0.02813737
47	0x3e991132	0.2989593
48	0xbbf2b097	-0.007406305
49	0xbf310752	-0.69151795
50	0xbd7838c5	-0.060601015
51	0xbe32173e	-0.17391679
52	0x3d1d53db	0.03841005
53	0xbd8a3b07	-0.0674954
54	0x3c245413	0.0100298105
55	0x3dd73672	0.105084315
56	0xbd545f97	-0.051848974
57	0xbd83a21c	-0.06427404
58	0x3d799e29	0.06094185
59	0xbf1defed	-0.6169422
60	0x3ee34533	0.44388732
61	0xbef1dc59	-0.47238424
62	0x3d076cbf	0.033062693
63	0x3c7b3546	0.015332526
64	0x3cacd0fb	0.021095743
65	0x3ed64ada	0.41853982
66	0x3d66edd8	0.05637917
67	0xbeed527e	-0.46352
68	0x3dfcfdb0	0.123530746
69	0x3ca32aa4	0.019917794
70	0x3db370b9	0.087617345
71	0xbed09f3d	-0.4074649
72	0x3d401f27	0.04690471
73	0xbe56e3d9	-0.20985354
74	0xbd0e1890	-0.034691393
75	0xba1f8614	-0.0006085348
76	0x3ef3d365	0.4762222
77	0xbf93d871	-1.1550428
78	0x3cd4a0e8	0.025955632
79	0x3dbff3d8	0.093726814
80	0xbd93f177	-0.0722379
81	0xbf30bcc6	-0.69038045
82	0xbd5e405b	-0.054260593
83	0xbe00d279	-0.12580289
84	0x3d9ab516	0.07554071
85	0xbbb6fed0	-0.0055845752
86	0x3e9a20e2	0.30103213
87	0xbf60bd1f	-0.87788576
88	0x3e99045f	0.29886147
89	0xbed5f1a3	-0.41785917
90	0xbcc9a924	-0.024616785
91	0x3d4dc95c	0.05024086
92	0x3d77e7ef	0.060523923
93	0x3d08efdb	0.03343187
94	0xbd409f77	-0.047027078
95	0xbd1ade98	-0.03780994
96	0x3e01f7c9	0.12692179
97	0xbee71032	-0.45129544
98	0xbdc7e82e	-0.09761082
99	0xbd9a03ad	-0.07520232
100	0x3d53bbc5	0.051692743
101	0xbea12629	-0.31474426
102	0x3f0302fd	0.51176435
103	0xbdc894c1	-0.097939976
104	0xbc4f47e1	-0.012651415
105	0x3dd1c091	0.10241807
106	0xbdcfd4a3	-0.10147979
107	0xbf51fecc	-0.82029414
108	0xbd1ec396	-0.038760744
109	0xbd5fedfe	-0.054670326
110	0xbce7a628	-0.028277472
111	0x3ed825b7	0.42216274
112	0x3c5c588b	0.013448845
113	0xbe26ace2	-0.16276887
114	0xbd2da5d4	-0.042394474
115	0xbc5a6ab7	-0.013331107
116	0x3c9a1902	0.018810753
117	0x3d3c3ad5	0.045954544
118	0xbe7bfea6	-0.2460886
119	0xbb6bdb30	-0.00359888
120	0xbd032448	-0.032017022
121	0x3cc084d0	0.02350083
122	0x3c80d867	0.015728189
123	0x3dce9226	0.10086469
124	0xbf5dcce8	-0.8664079
125	0xbe1d6aa9	-0.15372719
126	0xbbe80a52	-0.0070813084
127	0xbc23104d	-0.009952617
128	0xbc2a4deb	-0.010394554
129	0x3f1ab687	0.60434765
130	0x3da3b444	0.07993367
131	0xbed71f6e	-0.42016166
132	0xbb6b2ddc	-0.0035885489
133	0x3d998a39	0.07497067
134	0x3d2329be	0.03983473
135	0xbe9c185e	-0.3048734
136	0x3d8e93ec	0.069618076
137	0xbdf1a3cf	-0.11798822
138	0x3c4eb7c7	0.012617058
139	0xbdbfe567	-0.09369927
140	0x3f2b2097	0.66846603
141	0xbc944964	-0.018101402
142	0x3d4265d0	0.047460377
143	0x3e6ae7da	0.22940007
144	0x3cb0b53f	0.0215708
145	0x3dadd261	0.08487392
146	0x3d63aab1	0.055582706
147	0xbe5e4094	-0.21704322
148	0x3d261331	0.040545646
149	0x3d308709	0.04309753
150	0xbc8b7643	-0.017024165
151	0xbd22b891	-0.039726797
152	0xbdbb4100	-0.09143257
153	0xbe667d8c	-0.2250883
154	0x3bc9d14a	0.0061589824
155	0xbc092b32	-0.008372115
156	0xbdc43d81	-0.095820434
157	0x3d60fc4c	0.05492811
158	0x3de3cc99	0.11123008
159	0x3d881523	0.066446565
160	0xbdbcdb4a	-0.092215136
161	0xbd49f39f	-0.0493046
162	0xbcf47fb4	-0.02984605
163	0xbe59768d	-0.2123663
164	0xbeac0fcd	-0.33605805
165	0xbe93fde7	-0.2890465
166	0x3d9c0ddc	0.07619831
167	0xbfd20ec6	-1.6410758
168	0xbd0a06e7	-0.03369799
169	0xbbba3bdf	-0.0056834067
170	0xbc3a42e1	-0.011368484
171	0xbdd1b9c3	-0.10240509
172	0xbe4c87c1	-0.19973661
173	0xbcba7d9f	-0.022764979
174	0xbd516376	-0.051120244
175	0xbf7c8694	-0.9864285
176	0xbd470d9a	-0.048596956
177	0xbcd48c0c	-0.025945686
178	0xbd00454b	-0.031316083
179	0xbca531bb	-0.020165315
180	0xbd83d606	-0.06437306
181	0xbd82ac34	-0.063805014
182	0xbde420e0	-0.11139083
183	0xbcb91533	-0.022593116
184	0x3dadd00b	0.08486947
185	0xbb405476	-0.0029347218
186	0x3dc06efc	0.093961686
187	0xbdd3dd19	-0.103449054
188	0x3edee17b	0.43531403
189	0xbe55ac43	-0.20866494
190	0x3ceb3dd2	0.028716002
191	0xbc5da3a6	-0.013527786

4.bias f4 [3]
0	0x3fc4ba49	1.536935
1	0x3faf44d3	1.3692878
2	0x3f821db6	1.0165317
